model.pt (torch_old, 28451 bytes, 6 tensors)

fc1.weight f4 [64, 37]
0	0xbd37de9a	-0.044890024
1	0x3dea1c2e	0.11431156
2	0xbd9b465c	-0.07581779
3	0x3dce05cc	0.100596994
4	0x3e04336c	0.12910241
5	0x3e8a707b	0.2703894
6	0xbe893905	-0.26801315
7	0xbc6b9af2	-0.014380204
8	0xbe68ddb8	-0.22740829
9	0xbf42f997	-0.76162094
10	0xbd84da2f	-0.06486928
11	0xbd2cc884	-0.042183414
12	0xbd771a04	-0.060327545
13	0x3e0f07d2	0.13967827
14	0x3d7c346e	0.06157344
15	0x3d01c9bd	0.031686533
16	0x3e1d198d	0.15341778
17	0x3de406a5	0.1113408
18	0x3dd6fa29	0.10496933
19	0x3e2610c0	0.16217327
20	0x3bcc1305	0.0062278532
21	0x3e6917c3	0.2276297
22	0x3de236ef	0.11045634
23	0x3e30481d	0.17215009
24	0x3e8c4150	0.2739358
25	0xbe03ca55	-0.12870152
26	0x3e4b36a6	0.19845065
27	0x3d5be8b7	0.05368873
28	0x3e636886	0.22207841
29	0x3e470a48	0.19437516
30	0x3d11f5b6	0.03563472
31	0x3d5583a7	0.052127507
32	0xbe035f38	-0.12829292
33	0x3d91578c	0.07096776
34	0xbd9e9cc4	-0.077447444
35	0xbd28fc42	-0.041256197
36	0xbca9cd91	-0.020727905
37	0x3e71275e	0.23550174
38	0x3cd19adb	0.025586536
39	0x3dbe86f8	0.09303087
40	0x3ddcccb1	0.10781229
41	0xbe3086f6	-0.17238984
42	0x3e7ac255	0.24488194
43	0xbf3526c7	-0.70762295
44	0xbe0fd8fa	-0.14047614
45	0xbeeed1be	-0.46644396
46	0xbf60cf95	-0.87816745
47	0x3deab542	0.114603534
48	0xbd263c96	-0.040585123
49	0xbb82ff11	-0.0039976914
50	0x3e25cad0	0.16190648
51	0x3db640ed	0.08899102
52	0x3dff90af	0.12478768
53	0x3ddc23d9	0.10749025
54	0xbbc65bc7	-0.006053421
55	0x3d1993da	0.037494518
56	0xb98ce2a8	-0.00026871753
57	0xbd8545b7	-0.06507438
58	0xbde7fbed	-0.11327348
59	0xbd9e5cfa	-0.077325776
60	0x3c70a6e8	0.014688231
61	0x3e1f1e17	0.15538822
62	0xbde02d14	-0.10946098
63	0x3db70378	0.089362085
64	0x3e391b24	0.1807676
65	0x3cf6eb57	0.030141516
66	0x3c4a1f17	0.012336514
67	0x3ceb770f	0.028743295
68	0x3e442463	0.19154505
69	0x3de6fa0c	0.112781614
70	0x3d2f335f	0.0427736
71	0x3e34dcd7	0.17662369
72	0xbc9efabe	-0.019406673
73	0x3a9d7594	0.001201319
74	0xbd244af1	-0.040110532
75	0x3e4e23e1	0.20130874
76	0x3e4d8c35	0.20073016
77	0x3d186d72	0.03721375
78	0x3d82e010	0.06390393
79	0xbebed8de	-0.37274832
80	0xbd13e7a7	-0.036109593
81	0x3eabe649	0.3357413
82	0x3d9ed7cd	0.077560045
83	0xbdd68a70	-0.104756236
84	0x3b8725e4	0.00412439
85	0xbd52cb46	-0.051463388
86	0x3c442110	0.011970773
87	0xbd4dffc2	-0.050292738
88	0x3d8124be	0.06305836
89	0xbe1db7da	-0.15402165
90	0x3dda5bc0	0.10662031
91	0x3e58ac92	0.2115958
92	0xbcd312ca	-0.025765795
93	0xbd87810c	-0.066164106
94	0x3d51127b	0.051043015
95	0xbd5e1545	-0.054219503
96	0x3d8172df	0.06320738
97	0xbdd5db5c	-0.1044223
98	0xbe5d8b91	-0.21635272
99	0xbe721175	-0.23639472
100	0x3df9a8e0	0.121904135
101	0x3e4a9204	0.19782263
102	0x3cd07f82	0.025451425
103	0xbe26ffe9	-0.1630856
104	0xbdc4ac39	-0.09603161
105	0x3cf5c509	0.03000118
106	0xbe1b84d7	-0.15187393
107	0xbe30631d	-0.17225309
108	0x3e17e860	0.14834738
109	0x3d480768	0.04883519
110	0xbb18ff4e	-0.0023345533
111	0x3e388bb4	0.18022043
112	0xbebd3f20	-0.36962223
113	0x3e1aa432	0.15101698
114	0xbe6a5af6	-0.22886261
115	0xbf666482	-0.8999711
116	0xbc3c1925	-0.011480604
117	0xbe086229	-0.13318695
118	0xbe610d9c	-0.21977848
119	0x3d905703	0.07047846
120	0x3e5972ae	0.21235153
121	0x3d024594	0.031804636
122	0xbecd94a8	-0.40152478
123	0xbd000213	-0.031251978
124	0xbe85da5c	-0.26143157
125	0xbd9e929e	-0.07742809
126	0xbdc11c0c	-0.09429178
127	0x3e130cbf	0.14360331
128	0xbc8a8de0	-0.016913354
129	0xbef044c7	-0.46927473
130	0xbe9c6c7c	-0.30551517
131	0xbdb57283	-0.08859732
132	0xbd727cf2	-0.05920119
133	0xbd721b8e	-0.05910831
134	0x3d765c52	0.060146637
135	0x3e839d43	0.2570592
136	0xbdc82097	-0.09771841
137	0xbe1748f5	-0.14773925
138	0x3dbefd60	0.09325671
139	0x3ca181a6	0.019715142
140	0x3e56570a	0.2093164
141	0x3db0f484	0.08640388
142	0xbdd51800	-0.10404968
143	0xbecc9009	-0.3995364
144	0x3d30a07a	0.043121792
145	0xbbc7707f	-0.0060864086
146	0x3dc6cd25	0.09707097
147	0xbc93d820	-0.018047392
148	0xbe38f1a6	-0.18060932
149	0xbe58ae0d	-0.21160145
150	0x3ba243f6	0.004951949
151	0xbdab1716	-0.08354013
152	0xbe19752f	-0.14986108
153	0x3e3dc2fd	0.18531413
154	0x3de935a0	0.11387181
155	0xbe7e65ce	-0.24843523
156	0xbe161305	-0.14655693
157	0xbfa18f3e	-1.2621839
158	0x3d5b5018	0.05354318
159	0x3c9c743b	0.019098392
160	0xbdb83c09	-0.08995826
161	0xbdbe026b	-0.09277805
162	0xbe51d520	-0.20491457
163	0xbdc7f7ee	-0.09764086
164	0xbde4c854	-0.11171022
165	0x3e1867aa	0.14883295
166	0xbd9c691f	-0.07637238
167	0x3e378d4e	0.17924997
168	0xbe6a8c44	-0.2290507
169	0x3d7f589c	0.062340364
170	0x3e7b1827	0.24520932
171	0xbccab9c5	-0.024746785
172	0x3d47e926	0.048806332
173	0xbde7abd6	-0.11312072
174	0xbc0698fd	-0.008215186
175	0x3e6d9421	0.23201038
176	0x3e1a19af	0.1504886
177	0x3dbe580c	0.09294137
178	0x3dde555f	0.10856127
179	0xbd1ea47d	-0.038731087
180	0x3e0971bf	0.13422297
181	0x3daf5b32	0.08562316
182	0x3de99890	0.11406052
183	0xbc79eb5c	-0.015253868
184	0x3d015afa	0.031580903
185	0x3ca7f080	0.020500422
186	0x3abcf9dc	0.0014417726
187	0x3d178b06	0.036997817
188	0xbc10c033	-0.008834886
189	0x3e124fae	0.14288208
190	0x3ea969c9	0.3308852
191	0xbdbeba83	-0.09312918
192	0xbec604cc	-0.38675535
193	0xbe1b1d56	-0.1514791
194	0xbf8bcdb2	-1.0922148
195	0xbd0d2720	-0.03446114
196	0xbcc3c1e7	-0.02389617
197	0x3c5d14e1	0.013493747
198	0xbd89d2a5	-0.067296304
199	0x3d42698d	0.047463942
200	0xbd395fda	-0.045257427
201	0x3e3545b6	0.17702374
202	0xbcf135fa	-0.029444683
203	0xbc3a32db	-0.011364664
204	0xbddaeca0	-0.10689664
205	0x3e13bfdb	0.14428656
206	0x3db638c6	0.088975474
207	0x3d3b2ba5	0.04569592
208	0x3d9e598b	0.07731923
209	0x3dbd2999	0.0923645
210	0x3db60c93	0.08889117
211	0xbd0db086	-0.034592174
212	0xbd6822ae	-0.056673698
213	0x3d20a63a	0.039221026
214	0xbd24ef62	-0.040267356
215	0x3e1a0610	0.15041375
216	0xbe7b1714	-0.24520522
217	0xbe29253e	-0.16518113
218	0x3e0731c7	0.13202582
219	0xbe2f532e	-0.17121574
220	0xb86418ca	-5.4382523e-05
221	0x3d802ecc	0.06258926
222	0x3d8d3bd9	0.06896181
223	0xbcd225d5	-0.025652805
224	0xbead88a7	-0.3389332
225	0xbcd070e1	-0.02544445
226	0xbe1bb783	-0.15206723
227	0xbcd12fb4	-0.025535442
228	0xbdd26b9f	-0.10274433
229	0xbe1e78d8	-0.15475786
230	0xbd2bd1ff	-0.041948315
231	0x3e217a60	0.15769339
232	0xbe08faa8	-0.13376868
233	0x3e044284	0.12915999
234	0x3e494107	0.19653712
235	0xbeb8a356	-0.36062115
236	0xbe5de282	-0.21668437
237	0xbdce6d48	-0.100794375
238	0xbe49437d	-0.19654651
239	0xbe187e41	-0.14891912
240	0x3e31ca40	0.17362309
241	0x3df4310c	0.119234174
242	0xbdab187b	-0.08354279
243	0xbd1048ee	-0.0352258
244	0x3dad2fa0	0.084563494
245	0xbedfc87b	-0.43707642
246	0xbd063b4b	-0.03277139
247	0xbe3c4330	-0.18385005
248	0x3b4726a6	0.0030388026
249	0xbd51fe45	-0.05126788
250	0xbe6f8448	-0.23390305
251	0xbcf3f8f4	-0.029781796
252	0x3d68c3c8	0.056827337
253	0xbe071e81	-0.1319523
254	0xbd93790c	-0.07200822
255	0xbd7b73b0	-0.061389625

fc1.bias f4 [64]
0	0x3e44f56e	0.19234249
1	0x3cc8e8fa	0.024525154
2	0xbdedc06a	-0.11608966
3	0xbdc0a9a4	-0.094073564
4	0x3e6040a1	0.21899654
5	0x3c9ece37	0.01938544
6	0xbe2a7c5e	-0.16649005
7	0x3d0ff359	0.035144184
8	0x3d7d7d72	0.061887212
9	0xbe458d8a	-0.19292274
10	0x3e3576a0	0.17721033
11	0x3e5d0df7	0.21587358
12	0x3df573db	0.11984988
13	0x3d6d7a1e	0.05797779
14	0xbd6579d4	-0.056024387
15	0xbd747dc8	-0.059690267
16	0x3d8819fc	0.06645581
17	0xbcd6dea1	-0.026229205
18	0x3d1a981c	0.03774272
19	0xbe169118	-0.14703786
20	0xbe13191c	-0.14365047
21	0x3d6907c1	0.05689216
22	0x3c532aea	0.0128886495
23	0xbe033cac	-0.12816113
24	0xbe1777f9	-0.1479186
25	0x3ddfece3	0.109338544
26	0xbd6f6aa3	-0.058451306
27	0xbe26ea87	-0.16300403
28	0x3e2e62f8	0.17029941
29	0x3dce9eb9	0.10088868
30	0xbdc75be9	-0.09734327
31	0xbe1c041b	-0.15235941
32	0x3e11b8ee	0.14230701
33	0x3bf55371	0.0074867536
34	0xbdd2505f	-0.10269236
35	0x3dcb8348	0.09937149
36	0xbda26c18	-0.079307735
37	0x3d29d112	0.04145915
38	0xbd969332	-0.07352294
39	0xbe4cdff8	-0.20007312
40	0xbda41221	-0.0801127
41	0x3ce421a0	0.027848065
42	0xbe2eed6f	-0.17082761
43	0x3e40f344	0.18842798
44	0xba74fd0a	-0.0009345567
45	0xbdd04995	-0.10170285
46	0x3c3dcce5	0.011584495
47	0xbdfbc78e	-0.122939214
48	0xbdf732c7	-0.12070232
49	0xbd40ab13	-0.04703815
50	0xbe00e1a5	-0.12586077
51	0x3dee3bdf	0.11632513
52	0xbd0de62e	-0.034643345
53	0xbdebf3cb	-0.11521109
54	0xbe18563f	-0.1487665
55	0xbcbca314	-0.02302698
56	0x3e34d0ce	0.17657778
57	0xbca0ff13	-0.019652879
58	0xbd9b1f80	-0.075743675
59	0xbddc72df	-0.107640974
60	0xbc1ad465	-0.009450053
61	0x3d675cf9	0.05648515
62	0x3de5cebd	0.11221073
63	0x3c56c609	0.013108739

fc2.weight f4 [64, 64]
0	0xbd539619	-0.051656816
1	0xbe25f26c	-0.16205758
2	0x3bfbcf75	0.007684643
3	0x3db34d11	0.087549336
4	0xbd09a2ed	-0.033602644
5	0xbde224bc	-0.11042163
6	0xbe6ccd52	-0.23125198
7	0xbd75fa74	-0.060053304
8	0x3c8ea7dc	0.017414026
9	0x3dbb2435	0.09137765
10	0x3dc6d39d	0.09708331
11	0xbe2bb75e	-0.16769168
12	0xbde95ce4	-0.113946706
13	0x3e1f08d3	0.1553071
14	0xbdb6fe42	-0.089352146
15	0xbd3f4f95	-0.046706755
16	0x3d959866	0.07304458
17	0xbe65a764	-0.22427136
18	0xbe07be99	-0.13256301
19	0x3e0463fb	0.12928765
20	0xbcdba82d	-0.02681359
21	0x3d0905c7	0.033452775
22	0x3e67b5e5	0.22627981
23	0xbe709569	-0.23494495
24	0xbd5335bc	-0.051564917
25	0xbdec9d19	-0.115534015
26	0xbde2735c	-0.11057159
27	0x3c5bcb5c	0.013415184
28	0x3df7b489	0.12094981
29	0x3e8fe7b3	0.2810646
30	0xbd335b32	-0.043788143
31	0xbdbee95c	-0.093218535
32	0x3e4e21db	0.20130102
33	0x3e4026bf	0.1876478
34	0x3d3ff490	0.046864092
35	0x3caf75f0	0.021418542
36	0xbe91a520	-0.28446293
37	0xbb418deb	-0.0029534053
38	0x3c717b9d	0.014738944
39	0xbe08bb55	-0.13352711
40	0xbe5fc549	-0.21852602
41	0xbe0ce9dd	-0.13761087
42	0x3dc0c790	0.094130635
43	0xb9e68109	-0.00043965157
44	0x3e0cb0f4	0.13739377
45	0xbe3af470	-0.18257308
46	0xbe202e01	-0.15642549
47	0xbd045bea	-0.03231422
48	0xbcc93c5a	-0.02456491
49	0xbe1c962d	-0.15291663
50	0x3e1b30ca	0.1515533
51	0xbe856d29	-0.26059845
52	0x3d8bbdde	0.06823324
53	0xbdaef7ba	-0.08543344
54	0xbea6a32f	-0.32546374
55	0x3cd130fb	0.025536051
56	0x3c909177	0.017647488
57	0xbd64a132	-0.05581779
58	0xbde33f7e	-0.110960945
59	0xbc8679d9	-0.016415523
60	0x3e10cb95	0.1414016
61	0x3e72afa3	0.23699813
62	0xbe8fba6f	-0.28071925
63	0x3c22c9d8	0.009935819
64	0x3dd67a7b	0.1047258
65	0x3e3c2368	0.18372881
66	0xbe47db2b	-0.195172
67	0xbd66fe44	-0.05639483
68	0x3e460261	0.19336845
69	0x3df00b45	0.117208995
70	0x3dcf89d9	0.10133714
71	0x3e188012	0.14892605
72	0xbdf21f9c	-0.11822435
73	0xbe8e080c	-0.27740514
74	0xbd045212	-0.03230483
75	0x3e4f4646	0.20241651
76	0xbe8f013c	-0.2793063
77	0x3d56597d	0.052331436
78	0xbdc7df95	-0.09759442
79	0x3d3e783c	0.046501383
80	0x3e2697ec	0.16268891
81	0x3e42dcc3	0.19029526
82	0x3d65ec4f	0.056133565
83	0x3dc2f005	0.09518436
84	0x3d92a1b7	0.07159751
85	0xbe1499d5	-0.14511807
86	0xbddda64f	-0.108227365
87	0x3e4cd63b	0.20003597
88	0x3d2c3b53	0.042048763
89	0xbbb5b94c	-0.0055457707
90	0xbe835222	-0.256486
91	0xbd898a91	-0.067158826
92	0x3dff766c	0.12473759
93	0xbe275650	-0.1634152
94	0x3d80e8b4	0.062943846
95	0xbe004225	-0.12525232
96	0xbe2c7b98	-0.16844022
97	0x3dbc1bd8	0.09184998
98	0x3c379a84	0.011206273
99	0x3daa23ef	0.08307635
100	0x3c18cc65	0.009326075
101	0x3cee7e4f	0.029112963
102	0x3e57ecdd	0.2108645
103	0xbe55f794	-0.20895225
104	0xbc26005e	-0.0101319235
105	0x3e9de3a8	0.3083775
106	0xbd87b4df	-0.06626295
107	0xbd4b64c2	-0.049656637
108	0x3d0c6837	0.034279075
109	0x3d94af12	0.072599545
110	0xbdc92b0e	-0.09822665
111	0xbdf3da76	-0.119069025
112	0xbd03fc42	-0.032222994
113	0xbe266a01	-0.16251375
114	0xbd8153e0	-0.06314826
115	0x3e6c371e	0.230679
116	0xbd8dc73b	-0.06922766
117	0xbd8819d5	-0.06645552
118	0xbdf694c7	-0.12040096
119	0xbc55350b	-0.013013135
120	0xbd4fce4b	-0.050733846
121	0x3c3f3632	0.011670636
122	0x3e1b4881	0.15164377
123	0x3da948af	0.082658164
124	0xbe7803b4	-0.24220163
125	0x3d297bc8	0.041377813
126	0x3d8cfe9d	0.06884501
127	0xbe5e0c78	-0.21684444
128	0xbde589d2	-0.11207928
129	0xbe5bd431	-0.21467663
130	0x3d5465ce	0.0518549
131	0x3e151257	0.14557777
132	0xbe297dd1	-0.16551901
133	0xbda37a42	-0.07982303
134	0x3bad03ea	0.0052800076
135	0x3ca24428	0.01980789
136	0x3d15f667	0.03661194
137	0xbde05132	-0.10952987
138	0x3e1d494d	0.15359993
139	0xbe4c0ab0	-0.19925952
140	0x3dc95028	0.09829742
141	0x3d493a20	0.049127698
142	0xbc6e8cb3	-0.0145599125
143	0x3d4a4c15	0.049388964
144	0xbb2df1e9	-0.0026541895
145	0xbd70a1a3	-0.0587479
146	0x3e8927e6	0.26788253
147	0xbcc6d758	-0.024272606
148	0xbe7ff067	-0.2499405
149	0x3e57f3ca	0.21089092
150	0x3e0fb50f	0.14033912
151	0x3dbd6a5a	0.092488006
152	0xbd4f5dea	-0.050626673
153	0xbd593144	-0.0530255
154	0x3d69ae0c	0.05705075
155	0xbc1ec8bc	-0.0096914135
156	0xbbb7d425	-0.0056100064
157	0x3ea33200	0.31874084
158	0x3e3dace1	0.1852298
159	0xbcdc8c82	-0.026922468
160	0xbd0ab43b	-0.033863287
161	0xbd1cd373	-0.03828759
162	0xbe37340f	-0.17890953
163	0x3d3f7baf	0.046748813
164	0x3e151cff	0.14561842
165	0x3eadd80f	0.33953902
166	0x3d8f1348	0.069860995
167	0xbe14fb21	-0.14548923
168	0x3d2fca21	0.042917375
169	0xbe939c64	-0.28830254
170	0xbd513b8e	-0.051082186
171	0xbd1ec83a	-0.03876517
172	0xbd9b125c	-0.07571861
173	0x3cbe7889	0.023250835
174	0x3d3ccf44	0.0460961
175	0xbe23d3a6	-0.15998706
176	0x3d8bb8a1	0.068223245
177	0xbe0bc6f0	-0.13650107
178	0x3decb141	0.11557246
179	0xbe05a16e	-0.13049862
180	0x3e21d7e1	0.15805008
181	0x3d4c9bce	0.049953274
182	0xbe3f9de4	-0.18712574
183	0xbc35d0bb	-0.0110971285
184	0x3cf1d588	0.029520765
185	0xbcf55b49	-0.029950755
186	0x3d1b7af7	0.037959065
187	0x3d1511d2	0.036393948
188	0x3d7dc143	0.061951887
189	0x3dd4da5f	0.103932135
190	0x3e331c31	0.17491223
191	0x3dd11870	0.10209739
192	0xbe5c2f71	-0.21502472
193	0xbeee4a5a	-0.465411
194	0xbdd7110a	-0.10501297
195	0xbe40cbef	-0.18827794
196	0x3ce05bf8	0.027387604
197	0x3c6418a2	0.013921889
198	0xbe112a1d	-0.14176221
199	0xbdd06b24	-0.101766855
200	0xbd2280c6	-0.03967359
201	0xbc82821a	-0.015931178
202	0x3d1d62c3	0.038424265
203	0x3da7fadc	0.082021445
204	0xbd53f1a3	-0.051744115
205	0xbcfdc040	-0.030975461
206	0xbdcc41c9	-0.09973485
207	0xbdef3b41	-0.11681224
208	0xbc693f9b	-0.014236356
209	0xbe0e5f46	-0.13903531
210	0xbd0cb188	-0.034348994
211	0xbca0447e	-0.01956391
212	0x3d007fd5	0.03137191
213	0x3dc6e6df	0.09712004
214	0x3e36a744	0.17837244
215	0x3e4ad275	0.19806845
216	0x3ab6069e	0.001388747
217	0x3db5011e	0.08838104
218	0x3d3f2a57	0.046671238
219	0xbe72b23a	-0.237008
220	0x3c8c0f2f	0.017097084
221	0xbe490858	-0.19632089
222	0xbe37a4b5	-0.17933924
223	0xbc2e4077	-0.010635487
224	0xbe046710	-0.1292994
225	0x3e0dca9c	0.1384682
226	0x3d85d18a	0.06534107
227	0x3e6d3813	0.23165922
228	0xbe8bd3e7	-0.27310106
229	0x3e6113f5	0.21980269
230	0xbbf491d6	-0.007463674
231	0x3ce64f15	0.028113881
232	0x3c9bdc4c	0.019025944
233	0x3cf53c31	0.029935928
234	0xbe465dec	-0.19371766
235	0x3de8a1a8	0.113589585
236	0x3d89ec2c	0.06734499
237	0x3d3c7e95	0.046019156
238	0xbe07be28	-0.13256133
239	0x3c1bb06d	0.009502512
240	0xbd18565a	-0.037191726
241	0x3c9622cf	0.018327145
242	0xbe960388	-0.2929957
243	0xbd635cad	-0.055508304
244	0xbd7cfec6	-0.06176641
245	0x3c3def12	0.011592643
246	0x3cd92be4	0.026510186
247	0xbdbda556	-0.09260051
248	0xbe549632	-0.2076042
249	0xbe453390	-0.19257951
250	0xbe346b6d	-0.17619105
251	0x3d9fd52f	0.078043334
252	0xbe59989c	-0.21249622
253	0xbc72450c	-0.01478697
254	0xbec6050d	-0.38675728
255	0xbc9be448	-0.019029751

fc2.bias f4 [64]
0	0x3d32c39f	0.04364359
1	0x3bdac3a7	0.0066761556
2	0x3e17db33	0.14829712
3	0x3b88c3b3	0.00417372
4	0x3e346d92	0.17619923
5	0xbda0f446	-0.078590915
6	0xbd8d6140	-0.069033146
7	0x3c86fa4b	0.01647677
8	0x3d95081d	0.07276938
9	0x3e9b0cd6	0.3028323
10	0x3cb63908	0.022243991
11	0x3e5db4ab	0.2165095
12	0x3b8dda4f	0.004329003
13	0xbcf0aeda	-0.02938025
14	0xbdbbf8e2	-0.0917833
15	0x3d536fa8	0.051620156
16	0xbd2e1780	-0.04250288
17	0x3d97068c	0.073742956
18	0xbba85928	-0.0051375814
19	0x3e901100	0.2813797
20	0x3e4a7262	0.19770196
21	0x3ebd4ddc	0.36973464
22	0xbe42db0a	-0.1902887
23	0xbdd05565	-0.10172538
24	0xbdda5a2c	-0.1066173
25	0xbe07de7e	-0.13268468
26	0x3d9cfa75	0.076649584
27	0xbcb3d183	-0.021950489
28	0xbca9083e	-0.020633813
29	0x3dcdf791	0.10056985
30	0x3d94a342	0.072577015
31	0xbbe20c45	-0.0068984353
32	0xbd62374f	-0.055228528
33	0x3dcb0156	0.09912364
34	0x3da50615	0.08057801
35	0x3d89cc7c	0.067284554
36	0xbe0e9430	-0.13923717
37	0xbd235dfc	-0.039884552
38	0x3dca629a	0.09882088
39	0x3ba6eeb5	0.005094374
40	0xbe21f2e3	-0.1581531
41	0x3ec2226e	0.37916893
42	0x3e8537f6	0.26019257
43	0xbd2e9f2b	-0.042632263
44	0x3da9d80b	0.0829316
45	0xbdef15c0	-0.1167407
46	0x3e1d1dc4	0.15343386
47	0xbdc8f626	-0.09812574
48	0x3e02117b	0.12701981
49	0xbdde0465	-0.10840682
50	0xbd0252ec	-0.03181736
51	0x3ea2610e	0.31714672
52	0xbda955db	-0.08268329
53	0xbb276394	-0.002554153
54	0x3d80ba90	0.06285584
55	0xbc8b11bb	-0.016976228
56	0xbe8045e2	-0.25053316
57	0xbe30521d	-0.17218824
58	0xbd06c005	-0.032897968
59	0xbd1c0a89	-0.038095985
60	0x3c22c576	0.009934774
61	0x3e6ee7ac	0.23330563
62	0x3d9fcfb3	0.07803287
63	0xbdc7adfa	-0.0974998

fc3.weight f4 [4, 64]
0	0x3e88e5d0	0.26737833
1	0x3e4738be	0.19455239
2	0x3e3403db	0.17579596
3	0xbd0d6014	-0.034515455
4	0x3e0d526f	0.13800977
5	0x3e9d2911	0.30695394
6	0xbcf5aad6	-0.029988687
7	0xbe2fed76	-0.17180428
8	0x3eb6a984	0.35676205
9	0x3d4df23e	0.05027985
10	0xbf01be09	-0.50680596
11	0x3e8c310f	0.2738118
12	0x3d1b3e04	0.03790094
13	0x3e3139f6	0.17307267
14	0xbcd6cd2a	-0.026220877
15	0xbe5b14ea	-0.21394697
16	0x3bbd08a9	0.0057688546
17	0x3e854a9d	0.26033488
18	0x3e3bd485	0.18342789
19	0x3e062426	0.13099727
20	0x3dc8bcc1	0.09801627
21	0x3e047b08	0.12937558
22	0xbc8d99fc	-0.01728534
23	0xbdcdffb3	-0.100585364
24	0xbe024368	-0.12721026
25	0xbd8de7e4	-0.06928995
26	0xbe81bf26	-0.25341147
27	0x3c041306	0.008061176
28	0x3ec6baa7	0.3881428
29	0x3eb17ccd	0.34665528
30	0xbe1bf833	-0.15231399
31	0x3da48aee	0.08034311
32	0x3df1cc5f	0.11806559
33	0x3f1f9c0a	0.6234747
34	0x3da1c064	0.07898024
35	0x3da7a8d8	0.08186501
36	0x3e6f0331	0.23341061
37	0xbe4263b6	-0.18983349
38	0x3de84a1d	0.11342261
39	0x3d5eb73a	0.054373957
40	0x3d8e8525	0.06958989
41	0x3dc81cb9	0.097711034
42	0x3d8ff180	0.07028484
43	0x3d96c8ae	0.07362495
44	0x3dadbce9	0.084832974
45	0xbdae022d	-0.08496509
46	0x3dc8cdad	0.098048545
47	0x3e7e3050	0.24823117
48	0x3db89fb0	0.09014833
49	0x3e820b03	0.25399026
50	0xbec6c7a9	-0.38824204
51	0x3e16e7c6	0.14736852
52	0x3d853da7	0.065059
53	0xbdbe2636	-0.09284632
54	0x3d2d02e1	0.042239074
55	0x3e70b678	0.23507106
56	0xbe529564	-0.205648
57	0xbc3a02f4	-0.011353243
58	0x3cf51d12	0.029921088
59	0x3c968cd5	0.0183777
60	0xbd334ef7	-0.04377648
61	0x3e065f33	0.13122253
62	0xbda38c4e	-0.07985745
63	0x3dcfcc95	0.10146443
64	0x3e618562	0.22023538
65	0x3e0def41	0.138608
66	0x3e1766db	0.1478533
67	0x3dd61bcd	0.10454521
68	0x3e884411	0.2661443
69	0x3e9b6a4f	0.30354545
70	0x3e3a3b64	0.18186718
71	0xbe2fc051	-0.17163207
72	0x3e4d88ee	0.20071766
73	0x3dafc276	0.08582012
74	0x3db403e6	0.08789806
75	0x3e4cca44	0.19999033
76	0x3d122476	0.035679303
77	0x3e07a7d5	0.13247617
78	0xbca5de60	-0.020247638
79	0x3e0bec71	0.13664414
80	0xbdeb195a	-0.11479445
81	0x3e4a28bb	0.197421
82	0x3e00b2a6	0.12568149
83	0x3dafbb35	0.08580629
84	0x3dfa8783	0.12232878
85	0x3e404047	0.1877452
86	0xbd49325d	-0.049120296
87	0x3e13e4ff	0.14442824
88	0xbcc6a342	-0.02424777
89	0xbd9356d0	-0.071942925
90	0xbd575e3d	-0.052580107
91	0x3eafa4f7	0.34305546
92	0x3de5235a	0.111883834
93	0x3ec5e80d	0.38653603
94	0xbd2d2506	-0.042271636
95	0x3db40227	0.08789473
96	0x3dc8a704	0.09797481
97	0x3ea439d4	0.3207537
98	0x3da1baaf	0.07896935
99	0x3dd692f0	0.10477245
100	0x3e85ada4	0.2610904
101	0xbd36eb99	-0.044658277
102	0x3d9c46fb	0.07630726
103	0x3e39589f	0.18100213
104	0x3dd980ee	0.106202945
105	0x3e1897da	0.14901677
106	0x3d7a6137	0.061127868
107	0xbc6d716d	-0.014492375
108	0x3de3887e	0.11110018
109	0xbde5a7a7	-0.11213618
110	0x3dd08b84	0.101828605
111	0xbdebd72d	-0.11515651
112	0x3ed6d87c	0.4196204
113	0x3e88079b	0.26568303
114	0xbd494ff9	-0.049148533
115	0x3daec546	0.08533721
116	0x3f1f1b8e	0.6215142
117	0x3d5dccc3	0.054150354
118	0x3e1a4679	0.15065946
119	0x3e4a984f	0.19784664
120	0xbd96598d	-0.07341299
121	0xbe041498	-0.12898481
122	0xbd111176	-0.035417043
123	0x3c85fd9c	0.016356282
124	0xbde7607c	-0.112977
125	0xbce406b2	-0.027835224
126	0xbe26d154	-0.1629079
127	0xbd80dbc4	-0.06291917
128	0x3db771de	0.08957265
129	0x3e10f53a	0.14156047
130	0x3e0d5f4e	0.13805887
131	0x3ea8e747	0.3298895
132	0x3e92f1a8	0.28699994
133	0x3e0843cb	0.13307111
134	0x3d9320e7	0.0718401
135	0xbd5a05f6	-0.05322834
136	0x3e90919f	0.282361
137	0x3dd397b1	0.10331667
138	0xbe4389bc	-0.1909551
139	0x3e13c066	0.14428863
140	0x3eaae40b	0.33377108
141	0xbd8c8f06	-0.06863217
142	0xbd76dabb	-0.06026719
143	0x3cfadaa2	0.03062183
144	0x3d00b19c	0.03141938
145	0x3d903e7e	0.070431694
146	0x3e8c5eae	0.27415985
147	0x3d9083d7	0.070563965
148	0x3d614d37	0.05500528
149	0x3e1a0300	0.15040207
150	0xbe2d74f6	-0.16939148
151	0x3d23a28c	0.03994994
152	0xbe13bac4	-0.14426714
153	0xbd4f750a	-0.050648727
154	0xbe660e6c	-0.22466439
155	0xbc5dee82	-0.013545634
156	0x3e90d619	0.28288344
157	0x3ebfb9eb	0.37446532
158	0x3d4a48a2	0.049385674
159	0xbd1003d8	-0.035159916
160	0x3e3f232e	0.18665764
161	0x3e7ce9ee	0.24698612
162	0x3e014ca0	0.12626886
163	0x3ead6d7f	0.338726
164	0xbe70e95b	-0.23526518
165	0x3d38fe6a	0.045164503
166	0x3dce1fb8	0.100646436
167	0x3e7b3734	0.24532777
168	0x3d811cfd	0.06304357
169	0x3dfd5eb5	0.123715796
170	0x3e2520d3	0.16125803
171	0x3d305b2f	0.04305571
172	0x3dd3ef31	0.103483565
173	0xbb2d88c5	-0.0026479226
174	0x3ddaaa0e	0.106769666
175	0x3e8c3eef	0.27391765
176	0xbe585f8d	-0.211302
177	0x3e655b91	0.22398211
178	0xbebfc53b	-0.37455162
179	0x3e54d13c	0.20782942
180	0x3d7f0006	0.06225588
181	0x3e4c2e48	0.1993953
182	0x3dd1280a	0.10212715
183	0xbdb357a7	-0.08756953
184	0xbe04fa7e	-0.1298618
185	0xbdb537d2	-0.088485375
186	0xbe86d71f	-0.26336
187	0x3e1ece47	0.15508376
188	0x3dbc2512	0.09186758
189	0x3d8f147a	0.069863275
190	0xbbf577a3	-0.0074910684
191	0xbda35d9b	-0.07976838
192	0x3e4362aa	0.19080606
193	0x3e9cef33	0.30651245
194	0x3e2baf02	0.16765979
195	0xbe28fa85	-0.16501816
196	0x3ca5831f	0.020204125
197	0x3eb92c57	0.3616664
198	0xbeedd2d2	-0.46449906
199	0xbc39d87e	-0.01134312
200	0x3e1f33fb	0.15547173
201	0x3e3e3742	0.18575767
202	0xbde85a9e	-0.11345409
203	0x3cd56902	0.026051048
204	0x3dfb8e05	0.122829475
205	0xbe207a98	-0.15671766
206	0x3d72be00	0.05926323
207	0xbef6a345	-0.4817144
208	0x3df07072	0.11740197
209	0x3da4c4d9	0.08045358
210	0x3e439379	0.19099225
211	0x3e1359d7	0.1438974
212	0x3d2c631e	0.042086713
213	0x3de1aea1	0.11019636
214	0xbe2a038a	-0.16602913
215	0x3e8388b3	0.2569023
216	0x3cc22e6f	0.023703782
217	0xbdca7384	-0.09885314
218	0xbe7bdee5	-0.24596746
219	0x3e706556	0.23476157
220	0x3d04f96a	0.032464422
221	0x3c93e714	0.018054523
222	0x3df5d8a8	0.120042145
223	0x3de6694e	0.11250554
224	0x3dc6f798	0.097151935
225	0x3ee0267c	0.4377936
226	0x3d7fc12e	0.06244009
227	0xbd86934b	-0.06571063
228	0xbde9881e	-0.114029154
229	0x3dc13667	0.094342045
230	0x3ecab030	0.39587545
231	0x3e99cb34	0.30037844
232	0xbdc95440	-0.098305225
233	0x3e21f8ac	0.15817517
234	0x3de0b66e	0.10972296
235	0xbedb8aa8	-0.42879224
236	0x3ebc2cc0	0.36752892
237	0xbe48f8fc	-0.1962623
238	0x3dbab491	0.091164716
239	0x3d91f53e	0.07126854
240	0x3ec62bec	0.38705385
241	0x3e1a44f0	0.1506536
242	0x3ed70d6d	0.4200243
243	0x3e1fb9a6	0.15598163
244	0x3d13dbfb	0.03609846
245	0x3e3b9281	0.18317606
246	0xbcd38aa3	-0.025822943
247	0x3ecfaecc	0.40563047
248	0xbd93c418	-0.07215136
249	0xbdedf11b	-0.11618253
250	0xbeae1ed4	-0.34007895
251	0xbe1b3afe	-0.15159222
252	0xbe0ee6bc	-0.13955206
253	0x3d86b0eb	0.06576713
254	0xbed613a6	-0.41811866
255	0xbe23823e	-0.15967652

fc3.bias f4 [4]
0	0x3e700f39	0.23443307
1	0x3e49b4b8	0.19697845
2	0x3df1c0b7	0.118043356
3	0x3ddd7a56	0.10814349
